control/autoware_smart_mpc_trajectory_follower/sample_models/wheel_base_changed/model_for_test_drive.pth (torch, 29970 bytes, 20 tensors)

weight f4 [16, 13]
0	0xbf3a835b	-0.7285668
1	0xbdf79ea1	-0.12090803
2	0xbdb556a9	-0.0885442
3	0xbd2a9566	-0.041646384
4	0xbc6267f1	-0.013818727
5	0x3ca89616	0.020579379
6	0x3da90332	0.082525626
7	0x3dbe933a	0.09305425
8	0x3de286ef	0.11060893
9	0x3e0d9781	0.13827325
10	0x3e1a5727	0.15072308
11	0x3e10775d	0.14108033
12	0x3e0673cf	0.13130115
13	0x3f32da3f	0.6986427
14	0x3b871b0e	0.004123098
15	0xbd56c03c	-0.052429423
16	0xbdd3408e	-0.10315047
17	0xbe067576	-0.13130745
18	0xbe24765a	-0.16060773
19	0xbe274297	-0.16333996
20	0xbe151faf	-0.14562868
21	0xbdf2fe46	-0.11864905
22	0xbdc13430	-0.09433782
23	0xbd71c227	-0.05902305
24	0x3cdd3068	0.027000621
25	0x3d9fee4f	0.07809126
26	0x3f32eaa5	0.6988929
27	0xbccd4200	-0.025055885
28	0xbd74bccd	-0.059750367
29	0xbd91873a	-0.071058705
30	0xbdc2539d	-0.09488604
31	0xbdea707c	-0.11447236
32	0xbdfa3c59	-0.12218542
33	0xbddc34a3	-0.10752227
34	0xbdc3e410	-0.09564984
35	0xbdc8c526	-0.09803228
36	0xbdc1c34a	-0.094610766
37	0xbdc4b827	-0.09605437
38	0xbdd6567c	-0.10465714
39	0xbf2e0934	-0.6798279
40	0x3de36158	0.11102551
41	0x3dcbb756	0.09947078
42	0x3db887b9	0.09010262
43	0x3dc16529	0.09443123
44	0x3dafced4	0.08584371
45	0x3d881dbc	0.066462964
46	0x3d1520cf	0.03640824
47	0x3c0fe044	0.008781496
48	0xbc4a2d82	-0.0123399515
49	0xbd16256f	-0.036656793
50	0xbd84ae93	-0.0647861
51	0xbda0335a	-0.078222945
52	0x3ed32e29	0.41246155
53	0xbe4e7918	-0.20163381
54	0xbe23b0d6	-0.15985426
55	0xbe3a5f02	-0.18200305
56	0xbe4c7ed8	-0.19970262
57	0xbe5f09fa	-0.2178115
58	0xbe5be15e	-0.2147269
59	0xbe340e1e	-0.1758351
60	0xbe202041	-0.15637304
61	0xbdf46c98	-0.11934775
62	0xbdf2ade4	-0.11849573
63	0xbd4e6af3	-0.050394963
64	0x3a1c64cb	0.0005965947
65	0x3ef97f7a	0.4873007
66	0xbb29d2f7	-0.0025913098
67	0xbd9bb958	-0.07603711
68	0xbe03c7f0	-0.12869239
69	0xbe1e1566	-0.1543785
70	0xbe43d315	-0.1912349
71	0xbe4ae7d0	-0.19814992
72	0xbe3b4f9d	-0.18292089
73	0xbe0afe6d	-0.13573618
74	0xbd6570bb	-0.05601571
75	0xbc05d647	-0.0081687635
76	0x3de9b96e	0.11412321
77	0x3e683fe4	0.22680622
78	0x3e70cfcd	0.2351677
79	0x3e4a585d	0.1976027
80	0x3e0e64f2	0.13905695
81	0x3e1cab0f	0.15299629
82	0x3e52d876	0.20590386
83	0x3e3d722e	0.18500587
84	0x3e1228b7	0.14273344
85	0x3e0a8355	0.13526662
86	0x3e130e27	0.14360867
87	0x3df05895	0.11735646
88	0x3cd7be6f	0.026335923
89	0xbdd76d8b	-0.105189405
90	0xbe8b191f	-0.27167603
91	0xbf39b509	-0.7254186
92	0xbe4eadfa	-0.20183554
93	0xbdd8b885	-0.10582069
94	0xbcfe64a7	-0.031053854
95	0x3cadb777	0.021205647
96	0x3d99e867	0.0751503
97	0x3db3788f	0.08763229
98	0x3db7e98e	0.08980094
99	0x3d937b64	0.07201269
100	0x3d9717af	0.07377564
101	0x3dbb513a	0.09146352
102	0x3da7495b	0.08168288
103	0x3d776869	0.060402308
104	0x3f202795	0.625604
105	0xbc541850	-0.01294525
106	0xbd0ea2e1	-0.034823302
107	0xbd36fac6	-0.04467275
108	0xbd83525a	-0.06412192
109	0xbdbd5783	-0.09245207
110	0xbdc69954	-0.09697214
111	0xbdbaf182	-0.09128095
112	0xbdcd4616	-0.100231335
113	0xbdae4c4f	-0.085106485
114	0xbde4a44b	-0.11164149
115	0xbdc988d0	-0.09840548
116	0xbdcfeb69	-0.10152323
117	0xbf34db22	-0.7064687
118	0xbdc5b580	-0.09653759
119	0x3d15969c	0.036520585
120	0x3e28386e	0.16427776
121	0x3e825f9e	0.25463575
122	0x3eb8da0a	0.3610385
123	0x3ea730e7	0.32654497
124	0x3e89a017	0.2687995
125	0x3e586d61	0.21135475
126	0x3e0547e6	0.13015708
127	0xbbca5461	-0.0061746095
128	0xbdc8e8ed	-0.09810052
129	0xbe27a147	-0.16370116
130	0xbf0ed67c	-0.5579603
131	0x3e01f105	0.12689598
132	0x3df0d02d	0.117584564
133	0x3def53f9	0.116859384
134	0x3dfd6fef	0.12374865
135	0x3dd222ee	0.102605686
136	0x3d886fe8	0.066619694
137	0x3d11edd4	0.0356272
138	0xbbc5c8dc	-0.006035907
139	0xbd623b50	-0.055232346
140	0xbdac01b3	-0.083987616
141	0xbdd51fd3	-0.104064606
142	0xbe0db2f9	-0.13837804
143	0x33af6511	8.1674564e-08
144	0x34e45045	4.2526713e-07
145	0x332ae1ac	3.9786457e-08
146	0x3453988c	1.9706403e-07
147	0xb48afabc	-2.5886936e-07
148	0x3498bbac	2.8448756e-07
149	0xb1b1f3c0	-5.179089e-09
150	0xb22b9098	-9.986387e-09
151	0x338a062a	6.427247e-08
152	0x32c8a508	2.3358112e-08
153	0xb32c8412	-4.0166988e-08
154	0xb2e899c8	-2.7078286e-08
155	0xb45a2d32	-2.0319274e-07
156	0xbf291f92	-0.660638
157	0xbcb3ee51	-0.021964224
158	0xbbdc1854	-0.0067167673
159	0x3ba5f0f0	0.0050641224
160	0x3d18dd76	0.037320577
161	0x3d736aec	0.05942814
162	0x3d82ce4f	0.063870065
163	0x3d7be1d5	0.061494667
164	0x3d62a620	0.05533421
165	0x3d88cf68	0.066801846
166	0x3d95b6d2	0.07310261
167	0x3db746e8	0.08949071
168	0x3dc33b36	0.09532778
169	0x3f38c783	0.7217943
170	0xbc13e43a	-0.009026581
171	0xbd16ad7d	-0.036786545
172	0xbd02b644	-0.031912103
173	0xbc6c71d3	-0.014431435
174	0xbce82330	-0.028337091
175	0xbc15a0d0	-0.009132579
176	0xbc9dbcc4	-0.01925505
177	0xbb91cc2d	-0.0044493885
178	0xbc83efcb	-0.016105553
179	0x3cc2e794	0.023792066
180	0xbc44e873	-0.012018311
181	0xbdc2e0f4	-0.09515563
182	0x3ca7f1a3	0.020500964
183	0xbb3f772c	-0.002921532
184	0xb9db5973	-0.0004183758
185	0x3aff70f4	0.0019488619
186	0x3b6c6ae0	0.0036074445
187	0x3ba66845	0.005078348
188	0x3bf096e7	0.0073422077
189	0x3c0a94a3	0.008458289
190	0x3c1eda67	0.009695626
191	0x3c2f9686	0.01071704
192	0x3c432f7e	0.0119131785
193	0x3c452139	0.012031847
194	0x3c46ba71	0.012129412
195	0x3f18775c	0.5955713
196	0xbe34b211	-0.17646052
197	0xbe08e766	-0.13369521
198	0xbdce8e13	-0.10085692
199	0xbda13a2d	-0.07872424
200	0xbda81664	-0.08207396
201	0xbdbe0992	-0.09279169
202	0xbdafb55e	-0.08579515
203	0xbdbf91a0	-0.09353948
204	0xbdbfcc8d	-0.09365187
205	0xbdf7b376	-0.12094776
206	0xbdce6022	-0.1007693
207	0xbdf02178	-0.11725134

bias f4 [16]
0	0x3e058baf	0.13041566
1	0x3dada183	0.084780715
2	0x3e122348	0.14271271
3	0x3e10e423	0.14149527
4	0xbd38c516	-0.04510983
5	0x3d9ce779	0.076613374
6	0xbe75ece0	-0.24016142
7	0x3de8bf5c	0.11364624
8	0x3dea270a	0.11433227
9	0x3dc71ff5	0.09722892
10	0x3e1bc369	0.15211262
11	0x349a32f0	2.8721797e-07
12	0x3dfe93d1	0.124305375
13	0x3e811099	0.25207976
14	0xbb2af568	-0.0026086215
15	0x3e50c893	0.20389013

weight f4 [32, 16]
0	0x3dbf3e76	0.09338085
1	0xbcedb26e	-0.029015746
2	0xbe24c901	-0.16092302
3	0xbe822592	-0.2541929
4	0xbe93d819	-0.28875807
5	0xbe7fd02d	-0.24981757
6	0xbe259cb7	-0.16173063
7	0xbdb423b0	-0.08795869
8	0x3cb86d7d	0.022513146
9	0x3e0d1a45	0.13779552
10	0x3e734a1f	0.23758744
11	0x3e8ad69a	0.27116853
12	0x3ea19929	0.31562164
13	0x3ee385eb	0.4443811
14	0x3f16dc98	0.5893035
15	0x3f370841	0.7149697
16	0x3e8c1364	0.27358544
17	0xbed8f8c1	-0.42377284
18	0xbeba0913	-0.36335048
19	0xbea153d1	-0.3150926
20	0xbe8be497	-0.27322838
21	0xbe6f48db	-0.23367636
22	0xbe377d6a	-0.17918935
23	0xbe0002c1	-0.1250105
24	0xbda0ee1f	-0.07857918
25	0xbd64143d	-0.055683363
26	0xbca2323c	-0.019799344
27	0x3c979ad1	0.01850644
28	0x3d5c9f22	0.0538627
29	0x3dc7b0de	0.097505316
30	0x3e018d8e	0.12651655
31	0x3e3eceba	0.18633547
32	0x32f38359	2.8348653e-08
33	0xb3f72a26	-1.15095006e-07
34	0x3392e134	6.839619e-08
35	0xb26aca08	-1.3666529e-08
36	0xb3e83937	-1.0813749e-07
37	0x3205eff8	7.7961815e-09
38	0xb428977e	-1.5701332e-07
39	0xb27a3a5e	-1.4565186e-08
40	0xb3a6ed9b	-7.7731976e-08
41	0xb37ab740	-5.8374326e-08
42	0x34104124	1.3434743e-07
43	0x3444343b	1.8272924e-07
44	0xb3d27306	-9.79981e-08
45	0xb347e52c	-4.654173e-08
46	0x32e7ba75	2.697673e-08
47	0x33fcfb35	1.1780359e-07
48	0x3e598c84	0.21245009
49	0xbd0856e6	-0.033285998
50	0xbca2eea5	-0.019889185
51	0x3c757b32	0.014982985
52	0x3d0f0aeb	0.03492252
53	0x3d60de71	0.054899637
54	0x3d87885f	0.066178076
55	0x3da00cf6	0.07814972
56	0x3daa9800	0.08329773
57	0x3df0d445	0.11759237
58	0x3e0cf56d	0.13765498
59	0x3e0c7662	0.13717034
60	0x3e1480fb	0.14502327
61	0x3e1a05c5	0.15041263
62	0x3e217f75	0.15771277
63	0x3e5b6ef3	0.21429043
64	0xbec2040b	-0.3789371
65	0x3e5630a2	0.2091699
66	0x3e312c65	0.17302091
67	0x3de65f93	0.11248698
68	0x3dc552ae	0.096349105
69	0x3d962674	0.07331553
70	0x3d7b91c3	0.061418306
71	0x3d320e3a	0.0434706
72	0x3bfef312	0.007780441
73	0xbd6beac6	-0.057596944
74	0xbde31ae6	-0.11089115
75	0xbe0d58ff	-0.1380348
76	0xbe39ec7e	-0.18156621
77	0xbe62ea33	-0.22159652
78	0xbe92e83a	-0.286928
79	0xbea3b6ed	-0.319755
80	0x3475a936	2.2878962e-07
81	0x33dee647	1.0379568e-07
82	0xb3d2bf21	-9.813653e-08
83	0xb33d0f66	-4.4018996e-08
84	0x338692f8	6.266595e-08
85	0xb40a153b	-1.2859975e-07
86	0xb4140ae2	-1.3787533e-07
87	0x32cd5d3e	2.3907543e-08
88	0xb3661210	-5.3567476e-08
89	0x33022c2e	3.0308165e-08
90	0xb2d3ad08	-2.4642318e-08
91	0xb3e80a96	-1.08052674e-07
92	0xb2d371a4	-2.461531e-08
93	0xb29f1a98	-1.852213e-08
94	0xb38b3fe3	-6.484313e-08
95	0x3263b060	1.3253242e-08
96	0x34204278	1.4925342e-07
97	0x3426cc35	1.5534245e-07
98	0xb4859db4	-2.4887925e-07
99	0xb4562d56	-1.9946796e-07
100	0x3439b36a	1.7294738e-07
101	0xb3b648c0	-8.4882686e-08
102	0xb4147b08	-1.3828333e-07
103	0xb3fb9f93	-1.1717125e-07
104	0x340a31d8	1.2870385e-07
105	0x341e27e8	1.4729414e-07
106	0x3329142c	3.9366725e-08
107	0xb2b18b14	-2.0668757e-08
108	0xb352880b	-4.9018166e-08
109	0xb3ae5b5a	-8.119123e-08
110	0xb3547544	-4.946675e-08
111	0x33982d6a	7.086312e-08
112	0xb46f415b	-2.2282386e-07
113	0xb118f3e0	-2.2257538e-09
114	0xb38d6dcd	-6.585797e-08
115	0xb48efe0b	-2.6634402e-07
116	0x32e1e9b8	2.629973e-08
117	0x33a85cd9	7.8399985e-08
118	0xb443d7c4	-1.8239285e-07
119	0xb2d86b60	-2.5194538e-08
120	0x32846be8	1.5415893e-08
121	0xb34a1730	-4.705288e-08
122	0xb3ac33a3	-8.018767e-08
123	0xb1f44640	-7.109321e-09
124	0xb31dad5e	-3.6712088e-08
125	0x34406d14	1.7921076e-07
126	0xb408d2a9	-1.2742625e-07
127	0x34333249	1.6688968e-07
128	0x3ee0b3e7	0.43887255
129	0xbea5ba59	-0.32368734
130	0xbe857354	-0.2606455
131	0xbe53f6e4	-0.2069965
132	0xbe34fb20	-0.17673922
133	0xbe0727c3	-0.13198762
134	0xbdaad412	-0.083412305
135	0xbd5b9067	-0.05360451
136	0xbd0f92ae	-0.035051994
137	0xbbd6d586	-0.0065562157
138	0x3d187d5b	0.037228923
139	0x3dd05dbc	0.101741284
140	0x3e1cecca	0.15324703
141	0x3e4430ab	0.1915919
142	0x3e681766	0.22665176
143	0x3e8eeb43	0.27913865
144	0xbedab61e	-0.4271707
145	0x3e28dce7	0.16490518
146	0x3e25db4f	0.16196941
147	0x3e0beb47	0.1366397
148	0x3e1e78f5	0.15475829
149	0x3e20e92a	0.15713945
150	0x3e1ff237	0.15619741
151	0x3de7d3e3	0.11319711
152	0x3d842685	0.064526595
153	0xbb0f5c8d	-0.0021875233
154	0xbd90c797	-0.07069319
155	0xbdd97a83	-0.106190704
156	0xbe2dff9d	-0.1699204
157	0xbe61de87	-0.22057544
158	0xbe9090d5	-0.28235498
159	0xbe9c703d	-0.3055438
160	0x3dd2c1e9	0.10290892
161	0x3e4715df	0.19441937
162	0x3d8b871b	0.06812879
163	0xbc967bf1	-0.018369647
164	0xbd8f5ae0	-0.06999755
165	0xbdafd58d	-0.085856535
166	0xbda02efe	-0.07821463
167	0xbd4e7473	-0.050404023
168	0x3c4f5747	0.012655086
169	0x3d8f8d33	0.070093535
170	0x3e006fa7	0.12542592
171	0x3e0822bd	0.13294502
172	0x3e17ecec	0.14836472
173	0x3e4fccfe	0.20293042
174	0x3e9b5f43	0.30346116
175	0x3ec10527	0.37699243
176	0x34afc49a	3.2739337e-07
177	0x34ce2e2a	3.840408e-07
178	0xb3fc94ba	-1.17617176e-07
179	0x33fbbdb4	1.1722605e-07
180	0xb325d560	-3.861112e-08
181	0x33efa29e	1.1158885e-07
182	0x34028564	1.215572e-07
183	0xb486e4db	-2.512596e-07
184	0x32599afc	1.2666302e-08
185	0xb3c3e233	-9.1215405e-08
186	0xb4044b7c	-1.2320919e-07
187	0xb345a6d5	-4.601937e-08
188	0x33e61fa2	1.07159636e-07
189	0x34afe544	3.2763103e-07
190	0xb3830104	-6.1003476e-08
191	0xb3688c5c	-5.4144365e-08
192	0x3e519a9f	0.2046914
193	0xbd73c458	-0.05951342
194	0xbd1c313f	-0.038132902
195	0xbc928e2f	-0.017890064
196	0xbc329b9c	-0.010901358
197	0x3bb4db11	0.005519279
198	0x3ce3597c	0.02775263
199	0x3d36fed3	0.044676613
200	0x3d60118c	0.054704234
201	0x3d96c633	0.07362022
202	0x3dd0246e	0.101631984
203	0x3e0797da	0.1324152
204	0x3e1fe6a5	0.15615328
205	0x3e24b72a	0.16085497
206	0x3e30807d	0.17236514
207	0x3e46e84f	0.19424556
208	0x34468f7a	1.8492383e-07
209	0xb37f844a	-5.949213e-08
210	0x3386703d	6.260277e-08
211	0xb3ebcf52	-1.09807516e-07
212	0xb3089c52	-3.180714e-08
213	0x339f249b	7.410673e-08
214	0x344f76ba	1.932157e-07
215	0xb2cc5c50	-2.3790705e-08
216	0xb3cfb8af	-9.6727824e-08
217	0x3403aabf	1.2262443e-07
218	0xb3ab3068	-7.971613e-08
219	0x32121bc7	8.504634e-09
220	0xb395b302	-6.9709145e-08
221	0xb3da9c6e	-1.01798705e-07
222	0x3369c7d7	5.4431293e-08
223	0xb401f0cb	-1.2101661e-07
224	0x3ebb66c0	0.3660183
225	0xbe3825c9	-0.17983164
226	0xbe60c36e	-0.2194955
227	0xbe7d53bc	-0.24738973
228	0xbe7bde4f	-0.24596523
229	0xbe6415a6	-0.22273883
230	0xbe167490	-0.14692903
231	0xbd9713d4	-0.07376829
232	0x3aeee906	0.0018227405
233	0x3db29a1b	0.087207995
234	0x3e1f62b1	0.15564992
235	0x3e5767d3	0.210357
236	0x3e817395	0.25283495
237	0x3e7b6006	0.24548349
238	0x3e917ea0	0.2841692
239	0x3e9ad3c2	0.30239683
240	0x3e4dcba6	0.20097217
241	0x3bf0924b	0.007341658
242	0x3cabfd7b	0.020994892
243	0x3d67c8ce	0.056587987
244	0x3d6f891a	0.05848036
245	0x3daa9309	0.08328826
246	0x3db1835f	0.08667635
247	0x3db82f84	0.08993438
248	0x3dd07830	0.10179174
249	0x3decff54	0.115721375
250	0x3e150320	0.14551973
251	0x3e16fef6	0.14745697
252	0x3e0a896e	0.13528988
253	0x3e05a4c2	0.13051131
254	0x3e1b18d1	0.15146185
255	0x3e505373	0.20344333

bias f4 [32]
0	0x3c49bff6	0.012313833
1	0xbed6ecbd	-0.41977492
2	0xb4259df1	-1.5424281e-07
3	0xbf382240	-0.7192726
4	0x3e8ade71	0.27122834
5	0x33b73734	8.531643e-08
6	0xb2d90754	-2.5265457e-08
7	0x3399ab8a	7.1558205e-08
8	0x3dc55586	0.09635453
9	0xbe3b45c6	-0.18288335
10	0x3ca56cf2	0.02019355
11	0xb3c186a4	-9.011754e-08
12	0xbf3282e2	-0.6973096
13	0x33499e88	4.6943143e-08
14	0x3eb5b753	0.35491428
15	0xbf3d914f	-0.7404985
16	0xb40d7e8b	-1.3177684e-07
17	0x3487b4a4	2.5277143e-07
18	0xbdb682d8	-0.08911675
19	0xbef9f4c7	-0.48819563
20	0x3ab5e2b3	0.0013876766
21	0xbcc5bac2	-0.024136905
22	0xbd44754d	-0.04796343
23	0x3d0f00ef	0.034913
24	0xbd41fa90	-0.047358096
25	0x3ddc3b3c	0.107534856
26	0xb1bd9480	-5.5175065e-09
27	0xbf0d8e88	-0.5529561
28	0xbe65a222	-0.2242513
29	0x328c2fe8	1.631993e-08
30	0xb2c5a65a	-2.3009466e-08
31	0xb3fe7812	-1.18496374e-07

weight f4 [16, 17]
0	0x338e6232	6.630252e-08
1	0xb34cbf56	-4.767147e-08
2	0x33c5b19b	9.2058336e-08
3	0x33e8a2d8	1.0832963e-07
4	0x338c7228	6.540023e-08
5	0x3356fb2f	5.0054208e-08
6	0x30874140	9.841088e-10
7	0xb29fd11e	-1.8605132e-08
8	0x33995253	7.1395924e-08
9	0xb4595d4a	-2.0243638e-07
10	0x3424aca5	1.5336498e-07
11	0xb3ef0de0	-1.11318286e-07
12	0xb3fc397e	-1.1745122e-07
13	0xb342ab19	-4.5324757e-08
14	0xb407a970	-1.2634496e-07
15	0x33c5d1ea	9.2117105e-08
16	0x33e19675	1.0504747e-07
17	0x343e95a9	1.7749575e-07
18	0xb1c639e0	-5.769138e-09
19	0xb2473360	-1.1595006e-08
20	0x33413cdd	4.499167e-08
21	0x33e9ff4c	1.0896346e-07
22	0xb2839600	-1.531862e-08
23	0xb339e642	-4.3283087e-08
24	0x338ba974	6.503515e-08
25	0xb3aac752	-7.952498e-08
26	0x33a1ff22	7.543555e-08
27	0x335908fc	5.053242e-08
28	0xb3ee7dee	-1.1105645e-07
29	0xb3dd15e4	-1.0295096e-07
30	0xb3d729d8	-1.0019329e-07
31	0x34126ddc	1.3637276e-07
32	0xb39edbde	-7.397442e-08
33	0x34600944	2.0864996e-07
34	0x3eb4b81b	0.3529671
35	0x3ebd3a18	0.36958385
36	0x3eb51940	0.35370827
37	0x3e9b9afd	0.30391684
38	0x3e84b5ed	0.25920048
39	0x3e649dbb	0.22325794
40	0x3e20ba93	0.15696172
41	0x3d98c2e9	0.07459051
42	0x3c6ce9a4	0.014460001
43	0xbd19df2d	-0.037566353
44	0xbdb230cb	-0.08700713
45	0xbe183165	-0.14862593
46	0xbe55da3e	-0.20884034
47	0xbe86a46f	-0.26297328
48	0xbea46190	-0.32105684
49	0xbecc0b9c	-0.39852607
50	0xbef690c4	-0.48157322
51	0x3e6ceaf0	0.23136497
52	0x3e27caa4	0.16385895
53	0x3e094e41	0.13408758
54	0x3df667b8	0.120315015
55	0x3dc49e82	0.096005455
56	0x3d831bdf	0.064018
57	0x3d4b84f9	0.04968736
58	0x3d5f7ef0	0.054564416
59	0x3ccdc34c	0.025117539
60	0x3c11af4b	0.008891891
61	0xbd1fc1b0	-0.039003074
62	0xbdbd5742	-0.09245159
63	0xbe1a25d9	-0.150535
64	0xbe5c5593	-0.21517019
65	0xbe7f8d23	-0.24956183
66	0xbe8e3548	-0.27775025
67	0xbea08da3	-0.3135806
68	0x3ebced78	0.36899924
69	0x3eb30c3c	0.34970272
70	0x3e998c6a	0.2998994
71	0x3e7cc9aa	0.24686304
72	0x3e4eb707	0.20187007
73	0x3e28359b	0.16426699
74	0x3ded3d05	0.11583904
75	0x3d83e539	0.06440205
76	0x3d7e519d	0.06208955
77	0x3d6dca29	0.058054123
78	0x3cf6cb45	0.030126223
79	0xbcc0ab44	-0.023519166
80	0xbdbfc370	-0.093634486
81	0xbe0dc8d3	-0.1384614
82	0xbe2f4637	-0.17116629
83	0xbe4b752c	-0.19868916
84	0xbe857240	-0.26063728
85	0xbe6a4398	-0.22877347
86	0xbe409eef	-0.18810628
87	0xbe2caa92	-0.16861942
88	0xbe1d5460	-0.15364218
89	0xbe1dcf76	-0.15411171
90	0xbdff064e	-0.124523744
91	0xbdd220d2	-0.10260166
92	0xbdabf82b	-0.08396944
93	0xbdb2204e	-0.08697568
94	0xbda1f12e	-0.079073295
95	0xbd4c28a1	-0.049843434
96	0xbc0d2530	-0.008614823
97	0x3b948a64	0.004533099
98	0x3becc91e	0.0072261235
99	0x3ba6193f	0.0050689275
100	0xbc9f8ca9	-0.019476252
101	0xbd0d89a6	-0.0345551
102	0x3e951625	0.29118457
103	0x3e62614d	0.2210743
104	0x3e3a723e	0.18207642
105	0x3e2db19e	0.16962287
106	0x3e16e982	0.14737514
107	0x3de67b40	0.11253977
108	0x3da949a9	0.08266003
109	0x3d8afb72	0.06786241
110	0x3d20300c	0.03910832
111	0xbba6b1c7	-0.0050871107
112	0xbd9216ff	-0.071332924
113	0xbe0ca849	-0.1373607
114	0xbe3d22ba	-0.18470278
115	0xbe7691fa	-0.24079123
116	0xbe8f6427	-0.28006098
117	0xbeb75f1a	-0.35814744
118	0xbed6bec8	-0.4194243
119	0xbc8141ae	-0.015778389
120	0xb9084637	-0.00012996128
121	0x3c866d38	0.016409501
122	0x3c8a300b	0.016868612
123	0x3d0401d8	0.03222832
124	0x3d37e6cd	0.044897843
125	0x3d728d3f	0.059216734
126	0x3d85eba1	0.06539083
127	0x3da21e4a	0.079159334
128	0x3dcbab00	0.09944725
129	0x3df5bfea	0.11999495
130	0x3e084cee	0.13310596
131	0x3e04671a	0.12929955
132	0x3e0d981b	0.13827555
133	0x3e252f53	0.16131334
134	0x3e45f02b	0.19329898
135	0x3e55669e	0.20839927
136	0xb20a1f80	-8.0398195e-09
137	0x34153b10	1.3898193e-07
138	0x3418038b	1.4157392e-07
139	0x349cba1d	2.919268e-07
140	0x321879c8	8.875254e-09
141	0xb408ff2e	-1.2758821e-07
142	0x33fd6a5a	1.1800576e-07
143	0x3419d7f9	1.4327806e-07
144	0x33291cc5	3.9374545e-08
145	0x32ec1224	2.7482265e-08
146	0xb284fb6c	-1.5481156e-08
147	0x3428fcc2	1.5738172e-07
148	0x32d949c4	2.529567e-08
149	0x338d7a04	6.588019e-08
150	0x34108f6c	1.3463222e-07
151	0xb33226bc	-4.1479083e-08
152	0x32e559a9	2.6699881e-08
153	0x3a7f2db4	0.00097342883
154	0x3aa1039c	0.0012284401
155	0x3aa599f5	0.0012634384
156	0x3aad6ccf	0.001323128
157	0x3a99a528	0.0011722194
158	0x3a90fc89	0.001106159
159	0x3a91fe24	0.0011138362
160	0x3a9936f4	0.0011689351
161	0x3a96b257	0.0011497241
162	0x3a8bea1e	0.0010674631
163	0x3a8425a7	0.0010082022
164	0x3a734525	0.00092800177
165	0x3a5f53e1	0.0008519274
166	0x3a605e43	0.0008558968
167	0x3a997fb1	0.0011711029
168	0x3aa925f6	0.001290499
169	0x3ab55f3d	0.0013837587
170	0x3ea0aaef	0.31380412
171	0x3e7f5a0a	0.24936691
172	0x3e509e70	0.20372939
173	0x3e2e7d63	0.17040019
174	0x3e025c84	0.12730604
175	0x3dbb9155	0.09158579
176	0x3d9a2a91	0.0752765
177	0x3d9b9ab4	0.07597867
178	0x3d1466d0	0.036230862
179	0x39bcacef	0.00035987
180	0xbd16d213	-0.036821436
181	0xbdbb3793	-0.09141459
182	0xbe067bab	-0.13133113
183	0xbe42e1a3	-0.19031386
184	0xbe5c9152	-0.2153981
185	0xbe820501	-0.25394443
186	0xbea0fdc5	-0.3144361
187	0xb43e6ee8	-1.7735476e-07
188	0xb49addb8	-2.8846057e-07
189	0x32ee87e0	2.7768635e-08
190	0x343d21dc	1.7614315e-07
191	0x33960032	6.984955e-08
192	0xb401b402	-1.2079548e-07
193	0x3381f488	6.0515106e-08
194	0xb2f62d78	-2.8658846e-08
195	0x347b30c0	2.3393932e-07
196	0x345fbdc5	2.0837531e-07
197	0x3303896a	3.062579e-08
198	0x33272941	3.8920238e-08
199	0xb34b0b1e	-4.727473e-08
200	0xb3f266ec	-1.12877245e-07
201	0x3321ae22	3.7644106e-08
202	0xb3b1a91f	-8.272968e-08
203	0xb3bdbdac	-8.8354994e-08
204	0xbde5f488	-0.11228281
205	0xbdb11171	-0.08645905
206	0xbdb445c7	-0.088023715
207	0xbd7b882a	-0.061409153
208	0xbd0166fc	-0.031592354
209	0xbc7b61e3	-0.015343162
210	0xbd31ec90	-0.043438494
211	0xbda78597	-0.08179777
212	0xbe0410e9	-0.12897076
213	0xbe35fd49	-0.17772402
214	0xbe3f936e	-0.18708584
215	0xbe4d1740	-0.200284
216	0xbe33423f	-0.1750574
217	0xbe254390	-0.16139054
218	0xbe17e6db	-0.14834158
219	0xbe44ede5	-0.19231375
220	0xbe732e1e	-0.23748061
221	0x3e86f2e6	0.26357192
222	0x3e4032f8	0.18769443
223	0x3e1f6855	0.15567143
224	0x3e0e306f	0.13885663
225	0x3dc8f67e	0.0981264
226	0x3d9b3fa8	0.07580501
227	0x3d8cda77	0.06877606
228	0x3d810cab	0.06301244
229	0x3cf31c8a	0.029676694
230	0xbb1d1a7c	-0.0023972085
231	0xbd048e1c	-0.03236209
232	0xbdceb22a	-0.10092576
233	0xbe2682b0	-0.16260791
234	0xbe766688	-0.2406255
235	0xbe87ce24	-0.2652446
236	0xbe965099	-0.29358366
237	0xbeaa530d	-0.33266488
238	0xbea08771	-0.31353334
239	0xbe85345b	-0.26016507
240	0xbe4e9f1a	-0.2017788
241	0xbe02aac5	-0.12760456
242	0xbd3d5ec4	-0.046232954
243	0xbd12663c	-0.03574203
244	0xbd8355a9	-0.06412823
245	0xbca7ef01	-0.020499708
246	0x3db7bff3	0.08972158
247	0x3e3fa65a	0.18715802
248	0x3e53450e	0.20631811
249	0x3e67d23a	0.22638789
250	0x3e7a243a	0.24427882
251	0x3e91618c	0.28394735
252	0x3e86febb	0.2636622
253	0x3e84e9db	0.25959668
254	0x3e92719f	0.2860231
255	0x33868a6e	6.2650415e-08

bias f4 [16]
0	0xb43add8a	-1.7403195e-07
1	0x3333b64c	4.1842483e-08
2	0x3cca5636	0.024699312
3	0x3e585865	0.2112747
4	0x3db92145	0.09039549
5	0xbf0352f7	-0.5129847
6	0x3e183ef9	0.14867772
7	0xbf52316d	-0.8210667
8	0x34b23713	3.3195155e-07
9	0xbae28df3	-0.0017284736
10	0x3dad1bba	0.08452554
11	0x31dbb380	6.3941457e-09
12	0xbd44119a	-0.04786835
13	0x3e05be0e	0.13060781
14	0x3ea0e496	0.31424397
15	0x33b125e2	8.2490956e-08

weight f4 [16, 16]
0	0xb46e896d	-2.2215472e-07
1	0xb3ea80d0	-1.0919905e-07
2	0xb481729e	-2.4111517e-07
3	0xb1711100	-3.507978e-09
4	0x33f06bc2	1.1195472e-07
5	0x32cade4a	2.361698e-08
6	0xb37f40f8	-5.9430903e-08
7	0xb3651481	-5.3336866e-08
8	0xb3c59cd0	-9.2020514e-08
9	0xb38b3820	-6.482901e-08
10	0xb3c745c6	-9.279351e-08
11	0x33e57f6a	1.068682e-07
12	0x331fc04f	3.7194976e-08
13	0xb4225a68	-1.5120315e-07
14	0xb4136a46	-1.3729104e-07
15	0xb31ed144	-3.6977568e-08
16	0x3e4d9c6f	0.20079206
17	0xbe6ff4c1	-0.2343321
18	0xbcf96548	-0.030443802
19	0x3e477c40	0.19480991
20	0x3d4c74f2	0.049916215
21	0xbdfd9c4c	-0.12383327
22	0x3dc1be10	0.0946008
23	0x3eb52655	0.35380808
24	0x3d781637	0.06056806
25	0x3dccb96b	0.09996303
26	0x3e3f770e	0.1869776
27	0xb2f61562	-2.8647893e-08
28	0x3e7311d3	0.23737268
29	0xbe87cf7c	-0.26525486
30	0x3b695554	0.0035603838
31	0x3df6e074	0.1205453
32	0x3c222485	0.009896402
33	0x3b88ba31	0.0041725864
34	0xbc3f1135	-0.011661817
35	0xbc4a158c	-0.012334239
36	0x3bbb1943	0.0057097985
37	0x3c45ff07	0.012084729
38	0xb9f62eae	-0.00046955555
39	0xbaa55002	-0.0012612345
40	0xbc7b69ec	-0.015345078
41	0x3b880a21	0.004151598
42	0xbc4f5987	-0.012655622
43	0x3425c4e4	1.5438451e-07
44	0x3ba67656	0.0050800247
45	0x3bb42201	0.0054972176
46	0x3c801379	0.015634285
47	0xbc4086e5	-0.011750911
48	0x3e607f6a	0.21923605
49	0xbe8e2a93	-0.27766857
50	0xbd430b7f	-0.047618385
51	0x3e5fd8d0	0.21860051
52	0x3db90e4c	0.0903593
53	0xbe3be9d3	-0.18350916
54	0x3e2f2b8f	0.1710646
55	0x3e958aa8	0.2920735
56	0x3d1ca810	0.038246214
57	0x3e289316	0.16462359
58	0x3e788ddb	0.24272864
59	0xb38e8115	-6.63587e-08
60	0x3e5dcc9a	0.2166008
61	0xbe80a29f	-0.2512407
62	0x3c1cafbc	0.009563383
63	0x3dbbb129	0.0916465
64	0xb3c0a03f	-8.969845e-08
65	0xb4a700a6	-3.1106646e-07
66	0x3232eba0	1.0414539e-08
67	0x338ac720	6.4623464e-08
68	0x3345ba9e	4.6037364e-08
69	0x33b992c0	8.6414275e-08
70	0xb412f5e6	-1.3686767e-07
71	0xb3572ca2	-5.009918e-08
72	0xb2c10000	-2.2468157e-08
73	0x34451798	1.8355638e-07
74	0xb401d6fa	-1.2092269e-07
75	0xb4440e99	-1.8259233e-07
76	0xb31f0382	-3.7023263e-08
77	0x33cec5c1	9.628594e-08
78	0x341e6248	1.4750651e-07
79	0x34383664	1.7156123e-07
80	0x3dd582f5	0.10425369
81	0x3ebdb4d4	0.37052023
82	0x3e4ae73a	0.19814768
83	0xbe80a6d6	-0.25127286
84	0x3ddede2b	0.10882219
85	0x3ebbf67b	0.36711487
86	0xbd528e73	-0.05140538
87	0xbdca306a	-0.098725155
88	0x3de6a6eb	0.11262306
89	0x3e2faab0	0.17154956
90	0xbe4b0848	-0.19827378
91	0x349d3d67	2.9288205e-07
92	0xbe11f44f	-0.14253353
93	0x3dc96094	0.09832874
94	0xbb0bc699	-0.002132809
95	0x3df2ff69	0.11865122
96	0x33e634a3	1.0719784e-07
97	0x336228f0	5.2656958e-08
98	0x33b23bf5	8.299677e-08
99	0x337736ef	5.755913e-08
100	0x341de042	1.4703349e-07
101	0x34460c5e	1.8444686e-07
102	0xb388e825	-6.37522e-08
103	0xb3aaefb4	-7.9598436e-08
104	0x33d14048	9.7440136e-08
105	0x33ef898b	1.1154324e-07
106	0xb403687c	-1.2238337e-07
107	0xb40c3d66	-1.3060853e-07
108	0x341bda4a	1.4514913e-07
109	0x339395f2	6.872496e-08
110	0x34584579	2.0141842e-07
111	0x331ff3ec	3.7241918e-08
112	0x3d61dfac	0.05514495
113	0x3ec6992f	0.38788745
114	0x3e5477da	0.20748845
115	0xbef4724d	-0.47743455
116	0xbdcbb2da	-0.099462226
117	0x3e713750	0.23556256
118	0xbd334367	-0.04376545
119	0x3dbd1b2b	0.092336975
120	0x3e1c1b3e	0.15244767
121	0xbd06361b	-0.032766443
122	0xbee65b42	-0.449915
123	0xb3b43b6f	-8.392714e-08
124	0xbdf19b75	-0.11797229
125	0x3e34cff8	0.17657459
126	0xbc478036	-0.012176564
127	0x3e976ae9	0.29573753
128	0xbe45f552	-0.19331864
129	0x3eb9bd09	0.36277035
130	0x3e8fac64	0.2806121
131	0xbe4bef46	-0.19915494
132	0x3d33130e	0.043719344
133	0x3e41cd8e	0.18926069
134	0x3eb0a6d2	0.34502274
135	0xbe136c6d	-0.1439683
136	0x3e5f601d	0.21814008
137	0xbd68ca78	-0.056833714
138	0xbdea87af	-0.11451661
139	0xb37573e6	-5.7148917e-08
140	0xbe8eeea2	-0.27916437
141	0x3df1eace	0.118123636
142	0xbb5608c7	-0.003265904
143	0x3e597f70	0.2124002
144	0xbea2d441	-0.31802562
145	0x3eb7d538	0.3590486
146	0x3ea09274	0.31361735
147	0xbe19db00	-0.15024948
148	0xbc7ec232	-0.015549229
149	0x3e3f5704	0.18685538
150	0xbd5e8f51	-0.054335896
151	0xbdbaa077	-0.091126375
152	0x3e69e539	0.22841348
153	0x3d42cc5c	0.047558174
154	0xbdb13dd4	-0.08654371
155	0xb470a118	-2.2410347e-07
156	0xbe65ed6f	-0.22453855
157	0x3dc638d6	0.09678809
158	0xbc654cc2	-0.013995351
159	0x3e8041ac	0.25050104
160	0xbe91981b	-0.2843636
161	0x3ec0e89c	0.37677467
162	0x3e834369	0.25637367
163	0xbe2d95bf	-0.16951655
164	0x3e2cbfc7	0.16870032
165	0x3eaa2939	0.33234575
166	0x3e865d82	0.26243216
167	0xbe8c47d7	-0.2739856
168	0x3e22f7f1	0.15914895
169	0x3e9deb19	0.30843428
170	0xbe0f7aba	-0.1401166
171	0xb47e52a3	-2.3685656e-07
172	0xbe8ed723	-0.2789851
173	0x3e89e163	0.2692977
174	0xbbcb2ed5	-0.006200651
175	0x3d2d8548	0.042363435
176	0x3398a23e	7.107563e-08
177	0xb41a449a	-1.4367325e-07
178	0xb4540b3c	-1.9748126e-07
179	0x339bfd4d	7.263825e-08
180	0xb43a3b74	-1.7344229e-07
181	0xb4e48a3b	-4.2568885e-07
182	0xb39ef594	-7.402119e-08
183	0x3347b15e	4.6494613e-08
184	0xb33d74a4	-4.4111076e-08
185	0xb402fea0	-1.2199826e-07
186	0x334f42e8	4.8256794e-08
187	0x3391f5cd	6.7967996e-08
188	0xb4a1da80	-3.0147567e-07
189	0x3226c8f0	9.70816e-09
190	0x338ec5d4	6.648375e-08
191	0x348ea085	2.6566354e-07
192	0x3e588491	0.2114432
193	0xbdbf3c7d	-0.09337709
194	0xbe1df092	-0.15423802
195	0x3dade5e9	0.084911175
196	0x3c1b7199	0.009487533
197	0x3e1bf3cc	0.1522972
198	0x3e955b5a	0.29171258
199	0x3decd5e2	0.115642324
200	0xbda7e307	-0.08197599
201	0x3edb6b84	0.42855465
202	0x3d4b3f20	0.049620748
203	0x332d1b68	4.0304627e-08
204	0x3e6a9fed	0.2291257
205	0x3cda887d	0.02667641
206	0x3c2882c9	0.010285088
207	0xbd61ce01	-0.0551281
208	0xbebe34a9	-0.37149552
209	0x3ee94dfe	0.45567316
210	0x3ea40cd6	0.32041043
211	0xbef6dadc	-0.4821385
212	0x3ee13951	0.4398904
213	0x3ee42a1a	0.4456337
214	0x3487aa3d	2.5269574e-07
215	0xbc7383a3	-0.014862928
216	0x3e748fcf	0.23882984
217	0xb330a488	-4.1127834e-08
218	0xbeadfb0a	-0.3398059
219	0xb3f39a98	-1.134369e-07
220	0xbed138be	-0.40863603
221	0x3eb1a634	0.34697115
222	0xb35e4a4e	-5.1755983e-08
223	0x3e9a8184	0.30176938
224	0xbac46bfc	-0.0014985795
225	0xbb162ee4	-0.0022916133
226	0xbb0c3c1a	-0.0021398128
227	0xbad47171	-0.0016208125
228	0xb3a19633	-7.524468e-08
229	0xb44861fe	-1.8662101e-07
230	0x3b1ea273	0.0024205714
231	0xb40139da	-1.2035107e-07
232	0xbac61e1b	-0.0015115173
233	0x3a27f6d1	0.0006407323
234	0xba9402a6	-0.0011292293
235	0xb4039fc2	-1.2258445e-07
236	0xbaa95ea1	-0.0012921878
237	0x38f179dc	0.000115144736
238	0x396b1585	0.00022419363
239	0xb3fb4576	-1.1700733e-07
240	0x3e9ab392	0.30215126
241	0xbe37ba01	-0.17942049
242	0xbde73255	-0.11288897
243	0x3dbc88f9	0.09205813
244	0x3d632f88	0.05546525
245	0xbce294e0	-0.02765888
246	0xbdbc5f15	-0.09197823
247	0x3e0f70f2	0.14007929
248	0xbd0f57ad	-0.034995724
249	0x3ead5ae6	0.33858413
250	0x3d985c5b	0.074394904
251	0xb31fc0f2	-3.7195555e-08
252	0x3e53b541	0.20674612
253	0xbdc9cc6d	-0.09853444
254	0x3c62c8d9	0.013841831
255	0xbd463f82	-0.04840041

bias f4 [16]
0	0x33e57c78	1.0686284e-07
1	0x3de37c7b	0.11107727
2	0x3b45c8bc	0.0030179461
3	0x3e0f8ac8	0.14017785
4	0xb29d5234	-1.8314587e-08
5	0x3d2c376b	0.04204504
6	0xb36c4cde	-5.5017942e-08
7	0x3d8cc7cc	0.06874046
8	0x3dd36d99	0.103236385
9	0x3d86d1cf	0.065829866
10	0x3da8d8b1	0.082444556
11	0x33f7dade	1.15416455e-07
12	0x3d9e673b	0.077345334
13	0xbf145591	-0.57943064
14	0xba1072b8	-0.00055102585
15	0x3e09a95d	0.13443513

weight f4 [8, 48]
0	0xbfcc2995	-1.595019
1	0x3e68f6d3	0.22750406
2	0xb329fb54	-3.957696e-08
3	0xb2d1b46c	-2.4412849e-08
4	0x3e0075b9	0.12544908
5	0xb41c0422	-1.4530136e-07
6	0xb3dfdd54	-1.0424506e-07
7	0x3427e5bc	1.5636664e-07
8	0xbd12f2f7	-0.03587624
9	0xbe0b78bc	-0.13620275
10	0xbf5020be	-0.8129996
11	0x345df662	2.0671862e-07
12	0x33a7e606	7.8183845e-08
13	0xb3a3016a	-7.590536e-08
14	0xbea7ba6c	-0.32759416
15	0x333ce67d	4.398179e-08
16	0xb38c4aea	-6.532885e-08
17	0xb4201c62	-1.4911487e-07
18	0x3f92c41a	1.1466095
19	0xbdbb6f13	-0.09152045
20	0xbf6ea1c9	-0.93215615
21	0xbe0a7d62	-0.13524392
22	0xbda5d93b	-0.08098074
23	0xbadd520c	-0.0016885414
24	0x3d916922	0.071001306
25	0x3dc11ade	0.09428953
26	0x34b36fe6	3.3422765e-07
27	0xbe1b2171	-0.15149476
28	0xb32e15f8	-4.0532512e-08
29	0xb40712d7	-1.2579709e-07
30	0x33953b15	6.9491e-08
31	0x342d8a2f	1.6162151e-07
32	0xb1e0d2c0	-6.5432175e-09
33	0x32bf9a6a	2.2305546e-08
34	0xbed24d4b	-0.41074595
35	0x3dd695e3	0.104778074
36	0xbef89a9c	-0.48555458
37	0xbe106cab	-0.14103954
38	0x3de0a0c4	0.109681636
39	0x349f42ce	2.9664665e-07
40	0x30a77480	1.218396e-09
41	0xb38b2eee	-6.481228e-08
42	0xbe482c9b	-0.19548266
43	0x344d3e28	1.9114725e-07
44	0x3d5a262c	0.05325906
45	0x3dadbcfd	0.08483312
46	0x3e1a349f	0.15059136
47	0xb3051874	-3.0988716e-08
48	0xbdaef2ee	-0.08542429
49	0xbe614cad	-0.22001906
50	0xb349a17c	-4.694583e-08
51	0x3ef049fa	0.4693144
52	0x3e78befc	0.24291605
53	0xb36d7792	-5.528961e-08
54	0xb368735c	-5.4121628e-08
55	0x346b3454	2.1905117e-07
56	0x3ddf8fb7	0.10916083
57	0xb39104bf	-6.752952e-08
58	0xbe0a8efd	-0.13531108
59	0xb3ea62c9	-1.0914443e-07
60	0x3e97654a	0.29569465
61	0x33f346e0	1.13284614e-07
62	0x3d316498	0.043308824
63	0x3ed91b97	0.42403862
64	0x340ad9a3	1.2931427e-07
65	0xb2ec5f24	-2.7517281e-08
66	0xbe4a8c5b	-0.19780104
67	0xb4138faf	-1.3742714e-07
68	0xbe96193e	-0.29316133
69	0xbf074da7	-0.52852863
70	0xbf1abe62	-0.6044675
71	0x3cb31861	0.02186221
72	0xbedb7803	-0.42865
73	0x3e76967a	0.2408084
74	0xb3c28668	-9.058277e-08
75	0xb44442d4	-1.8278234e-07
76	0x39eaaf4f	0.00044762573
77	0xb40b14c0	-1.2952933e-07
78	0xb3637d64	-5.2966598e-08
79	0xb39995bc	-7.151854e-08
80	0xb4ba298a	-3.4675423e-07
81	0xb37280b2	-5.6462063e-08
82	0xbf109679	-0.56479603
83	0x3e970382	0.29494864
84	0xbdaa4761	-0.08314396
85	0xb326b19a	-3.8811415e-08
86	0x3ebb7766	0.3661453
87	0x3f0b58d6	0.5443243
88	0x34130c35	1.3694883e-07
89	0x3aeae1a8	0.0017920034
90	0x3d0a95be	0.03383421
91	0xb415ca62	-1.3950333e-07
92	0xbef1b2c6	-0.47206706
93	0x3e907eb2	0.2822166
94	0x3c356d6f	0.011073454
95	0xb3ef4065	-1.1141018e-07
96	0x34376ae9	1.7082097e-07
97	0x3d91a773	0.071120165
98	0x3338d625	4.30356e-08
99	0xb3a7d806	-7.815838e-08
100	0xbc5b1cb9	-0.013373547
101	0x32c1d507	2.256503e-08
102	0x34136d59	1.3730222e-07
103	0x33b74f10	8.535983e-08
104	0x3c3148d0	0.0108205825
105	0x3e0476df	0.1293597
106	0x330ca6e8	3.274809e-08
107	0xb3d1d602	-9.771249e-08
108	0xb31454a8	-3.453593e-08
109	0x3410e797	1.3495297e-07
110	0x3f83b4ae	1.0289514
111	0xb33c04fd	-4.3776698e-08
112	0x33c70023	9.2666845e-08
113	0xb48c05bc	-2.6081204e-07
114	0x34381429	1.714367e-07
115	0x3def0b53	0.11672082
116	0x3ecb5ce1	0.39719298
117	0x3efa1ee3	0.4885169
118	0x3f1d1640	0.61362076
119	0x3ce1b943	0.02755416
120	0xb8eef74e	-0.000113947885
121	0xbd284d5b	-0.041089397
122	0x33f5550e	1.1424173e-07
123	0x3ddc6983	0.10762312
124	0xb3a7da06	-7.816202e-08
125	0x334bd4bd	4.7458105e-08
126	0xb31a15ff	-3.5875924e-08
127	0x33304830	4.1043847e-08
128	0xb31eb1b0	-3.6948848e-08
129	0x3381aebe	6.038816e-08
130	0xbeba55e8	-0.36393666
131	0xbd15fec0	-0.0366199
132	0xbece5d1f	-0.4030542
133	0x3d908084	0.070557624
134	0xbcf3f70e	-0.02978089
135	0xb447d4ff	-1.8610807e-07
136	0x32ae8ec0	2.0321181e-08
137	0xb2ba9a60	-2.1723451e-08
138	0x3e13e684	0.14443403
139	0x338ad148	6.464194e-08
140	0x3ca77c80	0.020445108
141	0xbd10ccdc	-0.03535162
142	0xbf9643ad	-1.1739403
143	0x33fa480e	1.1654639e-07
144	0x3dfbc543	0.12293484
145	0x3e4fa25a	0.20276776
146	0x3252a91e	1.2262062e-08
147	0x3dd4df6d	0.103941776
148	0x3d364ef5	0.044508893
149	0x327b139a	1.461458e-08
150	0xb40dcb58	-1.3205624e-07
151	0xb3db1a74	-1.0202794e-07
152	0xbe9908c7	-0.2988951
153	0xbe5f4fef	-0.21807836
154	0x3e3c249c	0.1837334
155	0x34c12d02	3.59818e-07
156	0xbe9af13e	-0.30262178
157	0xb30c7c4e	-3.2709345e-08
158	0xbe597c59	-0.21238841
159	0x3e8af1f0	0.2713771
160	0x337a4ac6	5.8275667e-08
161	0xb33da120	-4.4151534e-08
162	0x3eb025d4	0.3440386
163	0xbec912e7	-0.39272234
164	0x3de33f7e	0.110960945
165	0x3c9530de	0.018211778
166	0x3d4228b9	0.047402117
167	0x3c930fff	0.017951963
168	0x3e3891f3	0.18024425
169	0x3dc48f7a	0.095976785
170	0xb42a449c	-1.5857444e-07
171	0xbeeb8c47	-0.4600546
172	0xbbacfe3d	-0.005279331
173	0x33e93eb6	1.0861315e-07
174	0x343404a2	1.6765492e-07
175	0xb3ce641e	-9.610834e-08
176	0x340cd3aa	1.3115519e-07
177	0xb3bf170f	-8.898325e-08
178	0x3d8d1076	0.06887905
179	0x3e03af61	0.1285987
180	0x3e1b4ccd	0.15166016
181	0xbecf725e	-0.40516943
182	0x3d15fb7f	0.0366168
183	0xbec94ae9	-0.39314964
184	0xb4994d18	-2.8554564e-07
185	0x3b92b0b1	0.0044766297
186	0x3d10f9c7	0.035394456
187	0x33985c77	7.094871e-08
188	0x3e2dd9d6	0.16977629
189	0x3e1cca64	0.15311581
190	0xbddadde3	-0.10686853
191	0xb3d0aef6	-9.71758e-08
192	0x34079c35	1.2629683e-07
193	0x2fbc0300	3.4199132e-10
194	0x33653ee4	5.3375416e-08
195	0x34a9711f	3.156101e-07
196	0x328dab3c	1.6492429e-08
197	0xb169ec90	-3.4040433e-09
198	0x330dd4c6	3.3022637e-08
199	0x339c1ec8	7.269915e-08
200	0xb3ed0158	-1.1036417e-07
201	0x33f24852	1.1282158e-07
202	0x33f687a2	1.1479939e-07
203	0xb42ec5da	-1.6276991e-07
204	0xb2097528	-8.001088e-09
205	0x33e530bf	1.067251e-07
206	0x3396ea34	7.0275206e-08
207	0x32041060	7.6871345e-09
208	0xb32a5f3c	-3.9667825e-08
209	0x33d70800	1.0013173e-07
210	0x332879b4	3.9226236e-08
211	0xb4a1cf4e	-3.013942e-07
212	0x3300f282	3.0022882e-08
213	0xb41a811b	-1.4389336e-07
214	0xb3c1d2ab	-9.025583e-08
215	0xb3b200f2	-8.288943e-08
216	0x3291917c	1.694638e-08
217	0xb3e3d191	-1.0608631e-07
218	0xb3da3d02	-1.0162513e-07
219	0xb3cbbff3	-9.4878395e-08
220	0xb3d07d73	-9.708574e-08
221	0xb2534c80	-1.22992105e-08
222	0x33d7b40e	1.00444694e-07
223	0x34384e59	1.7164838e-07
224	0x33ef7036	1.1149716e-07
225	0xb453c7d1	-1.9723599e-07
226	0xb3cfcf43	-9.676889e-08
227	0x342eef3b	1.6292044e-07
228	0x315ad910	3.184656e-09
229	0xb4194d9e	-1.4277472e-07
230	0x32b19ad0	2.0675913e-08
231	0xb46346fc	-2.1166846e-07
232	0x348abc32	2.5841433e-07
233	0xb4347738	-1.6807178e-07
234	0x331ff24b	3.7240437e-08
235	0x320d7212	8.233217e-09
236	0xb3e6b523	-1.0743158e-07
237	0x32f53808	2.8547234e-08
238	0x333fdf7c	4.467391e-08
239	0x34054a51	1.2413626e-07
240	0x3b9bd09f	0.004755094
241	0xbc13bf95	-0.009017845
242	0x338112f0	6.010475e-08
243	0x3cd289a9	0.025700407
244	0x3c1a4934	0.009416867
245	0x32041078	7.687156e-09
246	0xb38f1971	-6.663584e-08
247	0x33d1856a	9.756589e-08
248	0xbc35e533	-0.011102009
249	0x3c27a6d1	0.010232643
250	0x3be96841	0.0071230237
251	0x3370bf8d	5.605357e-08
252	0x3cee4065	0.02908344
253	0x34286384	1.5682423e-07
254	0xbbf59225	-0.0074942284
255	0x3cd26cf2	0.025686715

bias f4 [8]
0	0x3e8c477a	0.27398282
1	0x3d3471ce	0.044053845
2	0xbe0abc8c	-0.13548487
3	0xbdfa523a	-0.12222715
4	0xb232fd02	-1.0418491e-08
5	0xbc9dfcb3	-0.019285535
6	0xbc859f21	-0.01631123
7	0x3d8a01ed	0.067386486

weight_ih_l0 f4 [32, 25]
0	0xbeab8cf6	-0.33505982
1	0xb423f638	-1.5270132e-07
2	0x3df4cf5b	0.119536124
3	0x3b43875f	0.0029835326
4	0x3d404050	0.046936333
5	0x33de6bd2	1.0357293e-07
6	0xbe1e4b34	-0.15458375
7	0xb406ba07	-1.2547399e-07
8	0x3e0424a0	0.12904596
9	0xbe81c92f	-0.25348803
10	0xbe5d7355	-0.21626027
11	0xbf08379f	-0.5320987
12	0xb3be3f03	-8.859026e-08
13	0xbba83ad3	-0.0051339655
14	0x3f53dab2	0.8275558
15	0x32dcda28	2.5710577e-08
16	0x3db3108f	0.08743393
17	0x3cb4c3f1	0.022066088
18	0xbe9261ca	-0.28590232
19	0x3e20b00c	0.15692157
20	0xbe010a33	-0.12601547
21	0x33a0913c	7.4769986e-08
22	0xbbaf3a94	-0.005347559
23	0xbed05aa4	-0.40694153
24	0x3ed4329d	0.41444865
25	0xbce29f8a	-0.027663965
26	0xb3c2a79e	-9.0643184e-08
27	0x3bd3a526	0.006458896
28	0xb62af7bc	-2.5476174e-06
29	0x3d676549	0.056493077
30	0x333de585	4.421374e-08
31	0x3e429355	0.19001515
32	0x3305ad26	3.1123953e-08
33	0x3e14c70f	0.1452906
34	0x3d957af8	0.07298845
35	0x3b8cd2d2	0.0042975927
36	0x3ed16580	0.4089775
37	0x33ef9b42	1.1157546e-07
38	0x3f0dac72	0.55341256
39	0x3f1b2af4	0.60612416
40	0xb43367fa	-1.67085e-07
41	0x3ea6db17	0.32589027
42	0x3de7bc1e	0.113151774
43	0x3e8ca292	0.2746778
44	0xbdacec82	-0.08443548
45	0xbe1319d0	-0.14365315
46	0xb32bcd18	-4.000057e-08
47	0xba42b38d	-0.0007427268
48	0x3f055606	0.52084386
49	0xbe98c7f7	-0.2984006
50	0xbcd12b06	-0.02553321
51	0xb37b0302	-5.8443227e-08
52	0x3e054341	0.13013937
53	0x39240319	0.00015641413
54	0x3e033ae3	0.12815432
55	0xb42db319	-1.6177036e-07
56	0x3f44e959	0.7691856
57	0x33f6ea66	1.14979045e-07
58	0x3f09e8cd	0.5387085
59	0x3f35fd6a	0.71089804
60	0x3f350b4f	0.7072038
61	0x3f330aa0	0.6993809
62	0x33599faa	5.0669463e-08
63	0xbc5ecd37	-0.013598732
64	0x3f8b7b6b	1.0897039
65	0xb93c5399	-0.0001796022
66	0x3d6238ce	0.055229954
67	0x3e2db1e0	0.16962385
68	0xbed0af47	-0.40758726
69	0xbe8bd860	-0.2731352
70	0xbe891956	-0.26777142
71	0x331ac698	3.603654e-08
72	0x3c102d8c	0.008799922
73	0xbf1335d3	-0.57504004
74	0xbf0fafb3	-0.5612747
75	0xbe82ed37	-0.25571606
76	0xb4cba490	-3.7931432e-07
77	0x3e2d319f	0.1691346
78	0x39b37ca2	0.000342344
79	0x3e267167	0.16254197
80	0xb33bd6a2	-4.3734538e-08
81	0x3f171003	0.59008807
82	0x33451521	4.5886853e-08
83	0x3eeaa97d	0.45832434
84	0x3ec56f00	0.3856125
85	0x3f0d5645	0.5520976
86	0x3e3451f3	0.17609386
87	0xb417cec0	-1.4138186e-07
88	0xbe191aad	-0.14951582
89	0x3f687229	0.90799195
90	0xb514137a	-5.516264e-07
91	0x3d95a645	0.07307104
92	0xbff33570	-1.9000683
93	0x3e252dfa	0.1613082
94	0xbf0e1068	-0.55493784
95	0x3e001bd7	0.1251062
96	0xb1fcf8d0	-7.362452e-09
97	0x3a16e767	0.00057565275
98	0xbf5a80c7	-0.8535275
99	0x3e37a76f	0.17934965
100	0xbe931496	-0.28726643
101	0xb353d88f	-4.9324225e-08
102	0x3da484ca	0.0803314
103	0x39221b5a	0.00015459713
104	0x3c608ba9	0.013705173
105	0x3390a79a	6.736009e-08
106	0x3e9ecdd7	0.31016418
107	0x34045f80	1.23282e-07
108	0x3ef2670d	0.47344247
109	0x3dad0e36	0.08449976
110	0x3e10ef71	0.1415384
111	0xbdaa39ba	-0.08311792
112	0x33b1ff74	8.2886714e-08
113	0xbe36766e	-0.17818615
114	0x3f7d79db	0.9901406
115	0xb3187960	-3.5500648e-08
116	0x3bf735aa	0.007544239
117	0xbf98b7c1	-1.1931077
118	0x3cecbf5a	0.028899837
119	0x3ea8479a	0.32867128
120	0x3e67f5e3	0.22652392
121	0x33eac13f	1.09316254e-07
122	0xbadc396c	-0.0016801781
123	0xbf6ce7ae	-0.92541015
124	0xbd36d8a4	-0.0446402
125	0x3f01482c	0.5050075
126	0xb378268e	-5.7777065e-08
127	0xbd961dce	-0.073299035
128	0xbba781a4	-0.00511189
129	0xbc4dfcdd	-0.012572494
130	0xb3cb4ac4	-9.466524e-08
131	0x3e3ccf87	0.1843854
132	0xb087c6f0	-9.879084e-10
133	0x3e1845d9	0.14870395
134	0x3eb630f6	0.3558423
135	0x3e8aa430	0.2707839
136	0x3ea7bfdd	0.32763568
137	0x33926524	6.817052e-08
138	0x3aaf6d80	0.0013384074
139	0x3f556ad9	0.8336616
140	0x34e340df	4.2329245e-07
141	0xbe49fd66	-0.1972557
142	0xbf8f2c24	-1.1185346
143	0xbeb85f7f	-0.36010358
144	0xbf928669	-1.1447269
145	0xbd3df146	-0.046372674
146	0x340b18b0	1.2954365e-07
147	0xb9537e9c	-0.00020169694
148	0x3ed924d2	0.42410904
149	0x3e832d30	0.25620413
150	0x3e084bee	0.13310215
151	0x340c4c38	1.3066244e-07
152	0x3e5d095f	0.21585606
153	0xbbbd4367	-0.0057758573
154	0x3e659343	0.22419457
155	0x3416d8b8	1.404868e-07
156	0xbe5eff3d	-0.21777053
157	0x337f91d3	5.950444e-08
158	0xbde85fad	-0.11346374
159	0xbe87c953	-0.26520786
160	0xbe51e4ab	-0.20497386
161	0xbeb21f27	-0.34789392
162	0x33b22b74	8.296675e-08
163	0x3e8d80f4	0.27637446
164	0x3f6c488b	0.9229819
165	0xb3adeb19	-8.098704e-08
166	0x3e86a24b	0.26295695
167	0xbf32b261	-0.69803435
168	0x3e82a74d	0.25518265
169	0xbfd5607c	-1.667007
170	0x3d337ecf	0.043822106
171	0x33c18aba	9.012497e-08
172	0xbc8f0e42	-0.017462853
173	0x3bfd5de7	0.0077321413
174	0x3e8fc5c0	0.2808056
175	0xbf0390ec	-0.5139301
176	0x34967684	2.802591e-07
177	0x3edf422d	0.43605176
178	0xbb8fc681	-0.004387677
179	0x3ed04193	0.4067503
180	0xb30edb15	-3.3261205e-08
181	0xbd8c6619	-0.06855411
182	0x34d4619a	3.9559092e-07
183	0xbe596883	-0.21231274
184	0x3dd32429	0.103096314
185	0x3e788949	0.2427112
186	0xbe86d956	-0.2633769
187	0x332db307	4.0442526e-08
188	0xbe8692f2	-0.26283985
189	0x3f722cfd	0.94599897
190	0xb188f290	-3.985697e-09
191	0xbbf2f25f	-0.007414147
192	0x3d9193fe	0.071083054
193	0x3dfdcd88	0.123927176
194	0xbea085dd	-0.3135213
195	0x3daf930b	0.08572968
196	0xb30e635f	-3.315233e-08
197	0x3b96e564	0.004604982
198	0xbe8ffd32	-0.2812286
199	0xbf0b233a	-0.54350626
200	0xbddf47eb	-0.10902389
201	0xb3fca1da	-1.1764105e-07
202	0xbcec06b0	-0.028811783
203	0x3b12ccaf	0.0022399833
204	0xbe079523	-0.13240485
205	0x33f6fdf6	1.1501463e-07
206	0x3e9e61ed	0.30934086
207	0xb2c905b8	-2.340208e-08
208	0x3f36e76d	0.7144688
209	0x3ea868c2	0.32892424
210	0x3ec329e8	0.3811791
211	0xbd640544	-0.055669084
212	0x33968ff2	7.011103e-08
213	0xbebb438e	-0.36574978
214	0x3eae3c0d	0.3403019
215	0xb591eca7	-1.0872217e-06
216	0xbe841f75	-0.2580525
217	0xbb9190b4	-0.004442299
218	0xbd98b178	-0.074557245
219	0x3ee383b8	0.4443643
220	0xbdc604fb	-0.09668919
221	0xb32612b1	-3.8666887e-08
222	0xbc041b94	-0.008063216
223	0xbe523bb0	-0.20530581
224	0x3f179f1f	0.59227175
225	0x3e404188	0.18774998
226	0x32712ae8	1.4037802e-08
227	0xbe83686d	-0.25665608
228	0x3c209bd5	0.009802778
229	0xbdbaf5f7	-0.09128945
230	0x34081a8c	1.2675645e-07
231	0x3e200a73	0.15628986
232	0x3382a176	6.082966e-08
233	0x3d477bad	0.04870193
234	0x3d7b01db	0.061281066
235	0xbdf12e98	-0.11776465
236	0x3f49a359	0.78764874
237	0x33d4fdfc	9.918219e-08
238	0x3f802550	1.0011387
239	0x3ee422bf	0.4455776
240	0x348895be	2.5440926e-07
241	0x3efdb584	0.49552548
242	0xbe9b27c6	-0.30303782
243	0x3ec59e08	0.3859713
244	0xbf55c109	-0.83497673
245	0xbf8ee608	-1.116395
246	0x334da794	4.7882693e-08
247	0xbcc2338b	-0.023706218
248	0x3e80d2c9	0.25160816
249	0xbe6f1bd4	-0.2335046
250	0xbe9075ce	-0.28214878
251	0x339b25a7	7.224599e-08
252	0x3e49c999	0.1970581
253	0xb83cce8f	-4.5015066e-05
254	0x3e55a479	0.20863523
255	0x32164961	8.747834e-09

weight_hh_l0 f4 [32, 8]
0	0x3f0f8aed	0.5607136
1	0x3d768130	0.060181797
2	0xbe9fe631	-0.3123031
3	0xbd6edac7	-0.05831411
4	0xbd18f57b	-0.037343483
5	0xbe8fb6aa	-0.2806905
6	0xbf577cd4	-0.8417485
7	0xbf0308b5	-0.5118516
8	0xbc76fada	-0.015074456
9	0xbe26e82d	-0.16299506
10	0xbe9e5874	-0.3092686
11	0x3dcaea4a	0.09907968
12	0xbf11bc7b	-0.56928223
13	0x3f5dee66	0.8669189
14	0x3e52ec81	0.20598032
15	0x3dfb6b9c	0.12276384
16	0xbd64d363	-0.055865657
17	0xbd3ef0d7	-0.0466164
18	0x3df8c07b	0.12146088
19	0xbefda234	-0.49537814
20	0xbd8385ea	-0.064220265
21	0xbf7feb9b	-0.9996888
22	0xbe27691b	-0.16348688
23	0x3ddf6260	0.109074354
24	0x3e9c7174	0.30555308
25	0xbe265ee9	-0.16247143
26	0xbdedce8e	-0.11611663
27	0x3cc186c0	0.023623824
28	0xbe8fb5b0	-0.28068304
29	0xbf0cfd0c	-0.5507362
30	0xbf64e144	-0.8940623
31	0x3f63afaf	0.88939947
32	0x3e0d1b63	0.13779978
33	0xbf2ca920	-0.67445564
34	0xbe273f26	-0.16332683
35	0x3e3c1689	0.18367971
36	0xbec40eac	-0.38292444
37	0x3ea2c98d	0.31794396
38	0xbf2babd5	-0.6705907
39	0xbc9639f4	-0.018338181
40	0x3e8ff111	0.28113607
41	0xbf323920	-0.69618416
42	0x3ca5f46d	0.020258153
43	0xbe8ab3b2	-0.27090222
44	0x3e58c5b2	0.21169165
45	0xbf40538a	-0.7512747
46	0xbf3fd1f9	-0.7492977
47	0xbe29a27d	-0.1656589
48	0xbdef0d30	-0.11672437
49	0xbe1d91c8	-0.15387642
50	0x3eeb3bd6	0.4594409
51	0x3ce1afae	0.02754959
52	0x3dab49f5	0.083637156
53	0xbee57aad	-0.44820157
54	0x3eca3326	0.39492148
55	0x3e5e70c2	0.21722701
56	0x3e8bac3b	0.2727984
57	0xbf372f20	-0.7155628
58	0xbeb813b0	-0.3595252
59	0x3e9c7cab	0.30563864
60	0x3c8e3e75	0.017363766
61	0xbf888b50	-1.0667515
62	0xbf12e555	-0.5738118
63	0x3e61c559	0.22047938
64	0x3f416fc3	0.7556116
65	0x3f0d23a2	0.55132496
66	0xbf6f3515	-0.9344037
67	0x3e00ff95	0.12597497
68	0xbe62ff5a	-0.22167721
69	0xbe8d8bdd	-0.2764577
70	0xbf935aaa	-1.1512043
71	0xbceb313c	-0.02871
72	0xbe8ea494	-0.27859938
73	0x3e9cf777	0.3065755
74	0xbf0e01ce	-0.55471504
75	0x3e44abe3	0.19206195
76	0xbd11ac42	-0.03556467
77	0x3e2222fc	0.15833658
78	0x3ed444d1	0.41458753
79	0xbd3d1c87	-0.046169784
80	0x3d6c625b	0.057710987
81	0xbe85c80c	-0.26129186
82	0x3cd636c1	0.026149156
83	0xbdff4e57	-0.12466114
84	0x3de1834b	0.1101137
85	0xbf34dc95	-0.7064908
86	0xbe5fc027	-0.21850644
87	0xbd44eb3c	-0.0480759
88	0x3e82517f	0.25452802
89	0x3da43eda	0.080198005
90	0xbd9dfed3	-0.077146195
91	0x3dd7b3b0	0.105323195
92	0xbdce6f32	-0.100798026
93	0xbee5d06b	-0.44885573
94	0xbf2ba2a4	-0.67045045
95	0x3e811bea	0.2521661
96	0x3edc6a00	0.43049622
97	0xbd486e15	-0.048933107
98	0xbf57b5e2	-0.84261906
99	0x3e3bddc2	0.18346313
100	0xbee00efa	-0.43761426
101	0x3dd93d65	0.10607413
102	0xbeba56cd	-0.3639435
103	0x3ecf9df3	0.40550193
104	0x3f5ff006	0.8747562
105	0xbe883d67	-0.26609346
106	0xbf891bfc	-1.0711665
107	0xbe89629f	-0.26833054
108	0x3dac23aa	0.0840524
109	0xbfd90f64	-1.6957822
110	0xbf45bd0b	-0.7724158
111	0xbe89185b	-0.26776394
112	0x3eb1c7e5	0.3472282
113	0x3ec8e0f9	0.3923414
114	0x3e6a32d3	0.2287095
115	0x3d7da2b7	0.061922755
116	0x3c517dbc	0.012786325
117	0xbea18b71	-0.31551698
118	0x3e31163f	0.17293642
119	0x3eefe571	0.46854737
120	0x3f45d9b1	0.77285296
121	0xbf10a7f9	-0.56506306
122	0xbf53f2c6	-0.8279232
123	0x3e78a403	0.24281316
124	0x3dd31bfa	0.103080705
125	0xbf3d848d	-0.7403038
126	0xbf8053ab	-1.0025533
127	0x3e7b6580	0.24550438
128	0x3f326c93	0.6969692
129	0x3db1ea3a	0.08687253
130	0xbe93e539	-0.2888582
131	0x3ecec08b	0.40381274
132	0xbcdd76cf	-0.027034191
133	0x3e2a77d8	0.1664728
134	0x3dd688d0	0.10475314
135	0xbecb0d0c	-0.3965839
136	0xbe2a96f4	-0.16659147
137	0x3ebd4739	0.369684
138	0xbe4bc694	-0.1989997
139	0x3ed2f9e1	0.41206267
140	0x3e5582de	0.20850703
141	0x3f1fbbfb	0.6239621
142	0x3f06db5b	0.5267846
143	0x3e67c639	0.2263421
144	0xbe38d7b9	-0.18051042
145	0xbe71ea0c	-0.23624438
146	0x3c78f38a	0.015194783
147	0x3ec5e6c5	0.38652626
148	0x3e05d377	0.13068949
149	0x3f5aa3da	0.8540627
150	0x3c65ab02	0.014017822
151	0xbf041404	-0.5159304
152	0xbe1e1160	-0.15436316
153	0xbee0578a	-0.43816787
154	0x3e505107	0.2034341
155	0x3cd03b4e	0.025418904
156	0x3e6ef33f	0.23334979
157	0xbda126d6	-0.078687355
158	0xbf373126	-0.7155937
159	0xbed6825e	-0.41896337
160	0xbbce5108	-0.006296281
161	0x3c220d41	0.009890855
162	0x3e87619d	0.2644166
163	0xbe8269c6	-0.25471324
164	0x3ea56ec3	0.32311067
165	0xbedec6c9	-0.43511036
166	0xbe981b27	-0.29708216
167	0x3e0030a9	0.12518562
168	0xbda8c503	-0.08240702
169	0xbe4f8e3d	-0.20269103
170	0x3c139021	0.009006531
171	0x3c62148f	0.013798847
172	0x3c402abf	0.011728941
173	0x3e82ebd2	0.25570542
174	0xbf20e299	-0.6284576
175	0x3ee76658	0.4519527
176	0x3eb8b6a9	0.3607686
177	0x3dbf1d33	0.09331741
178	0x3d88436f	0.06653487
179	0xbd6b7e80	-0.057493687
180	0xbe991f7a	-0.29906827
181	0xbe78b8f8	-0.2428931
182	0x3e88875d	0.26665774
183	0x3e65313d	0.22382064
184	0x3ee0b44e	0.43887562
185	0xbe9e8fe7	-0.30969164
186	0xbd378600	-0.044805527
187	0x3f29a556	0.6626791
188	0xbe38c892	-0.18045262
189	0xbed48aa2	-0.41512018
190	0x3e71c5f9	0.23610677
191	0x3e3cce9b	0.18438189
192	0x3f0d257d	0.5513533
193	0xbeb51674	-0.35368693
194	0x3d0791b6	0.033097945
195	0x3e3af743	0.18258385
196	0xbe0d1070	-0.13775802
197	0xbf5e2ee3	-0.86790293
198	0xbf84b079	-1.0366355
199	0x3eae1671	0.34001496
200	0xbec2e338	-0.3806398
201	0xbeb94311	-0.3618398
202	0xbe14f71a	-0.14547387
203	0x3e58f69f	0.21187828
204	0x3da8fcc9	0.0825134
205	0x3ea5df4d	0.32396927
206	0xbdcac307	-0.0990048
207	0x3d99729c	0.07492563
208	0x3d938591	0.0720321
209	0xbe31443d	-0.17311187
210	0xbea25f63	-0.317134
211	0xbec92d48	-0.3929236
212	0xbeacd716	-0.33757848
213	0xbf596fde	-0.8493632
214	0xbe249a78	-0.1607455
215	0x3df4d590	0.11954796
216	0x3d69a822	0.05704511
217	0xbe406a82	-0.1879063
218	0x3ea02ef7	0.3128583
219	0xbcdf4cf9	-0.027258383
220	0xbe81f785	-0.25384155
221	0xbf3e919f	-0.7444095
222	0xbf8b852a	-1.0900013
223	0x3f61504b	0.8801314
224	0xbd66ee6c	-0.05637972
225	0xbea450d0	-0.32092905
226	0x3eb9c9bd	0.36286727
227	0x3ece0c8f	0.40243956
228	0xbd266e7c	-0.04063271
229	0xbe330fa8	-0.17486441
230	0xbf1c8bd8	-0.61150885
231	0x3e29f9a1	0.16599132
232	0x3f0a3d98	0.54000235
233	0xbf30d7d8	-0.6907935
234	0x3e99b82e	0.3002333
235	0x3cce82eb	0.02520891
236	0x3e93fd9e	0.28904432
237	0xbecb6adf	-0.39729974
238	0xbff38ced	-1.9027382
239	0xbe41b476	-0.18916497
240	0x3f11c276	0.5693735
241	0xbe9e015d	-0.30860415
242	0x4011ce57	2.278219
243	0xbfdf9c81	-1.7469636
244	0x3e4c8d1a	0.19975701
245	0xbfba8549	-1.4571925
246	0x3f655395	0.8958066
247	0xbec93ea7	-0.39305612
248	0x3ea86019	0.32885817
249	0xbef4c8c6	-0.47809428
250	0xbd42a71f	-0.04752266
251	0x3f31d694	0.69468045
252	0x3e869c10	0.2629094
253	0xbfcd9211	-1.6060201
254	0xbfb2dd81	-1.3973848
255	0x3f029a7d	0.5101698

bias_ih_l0 f4 [32]
0	0xbd7d4c01	-0.06184006
1	0x3e3992e5	0.18122442
2	0x3cc15166	0.023598384
3	0xbde2e161	-0.11078144
4	0xbde540d3	-0.11194005
5	0xbe98e942	-0.29865462
6	0xbe4ec428	-0.20192015
7	0xbe783ef9	-0.24242772
8	0x3e06a46e	0.13148662
9	0x3ee18eea	0.44054347
10	0xbe254373	-0.16139011
11	0xbe8b6358	-0.2722423
12	0x3d2f444f	0.042789754
13	0xbe54d4ed	-0.2078435
14	0x3ea114cd	0.31461182
15	0x3dc66a3f	0.096882336
16	0xbc590aff	-0.013247251
17	0x3d5ee741	0.05441976
18	0xbe1d994f	-0.15390514
19	0x3d2b488d	0.041817237
20	0x3c19c28a	0.009384761
21	0x3c43892f	0.011934563
22	0x3bd1d650	0.006403722
23	0xbda5dffc	-0.08099362
24	0x3d84734b	0.06467303
25	0xbcca74f1	-0.024713965
26	0xbd3d4f0e	-0.04621797
27	0xbe2b3b7d	-0.16721912
28	0xbe2fc1cb	-0.1716377
29	0xbe9efdb7	-0.31052944
30	0x3ef94cc6	0.48691386
31	0xbe11fbbb	-0.14256184
